model/model.pth (torch, 16787 bytes, 4 tensors)

linear1.weight f4 [256, 11]
00000000: 3ce6 913e 8000 583e c8b7 66be a4bc a8bd
00000010: 7ace 85bd a242 aa3c d192 9f3d 69d1 893e
00000020: 3710 96be 6a34 20be 0540 8dbe 64f1 8a3e
00000030: 47e4 0fbd 1d3b 49be 7a14 1f3e d38e 58bd
00000040: 6107 9dbe 8b77 933d 19a9 a83d 660a 933c
00000050: ba05 72bd dd50 903e 8245 343e 8034 b83d
00000060: 7a02 b83c 175f 78be 2885 253e b750 8cbe
00000070: 9d97 333e dd8d bc3d 6161 b6bd 7096 073e
00000080: 43df 36be 48eb 42be 219c 613d a8e8 563d
00000090: a0e0 4dbd 0899 163e e202 56be 645f 1d3e
000000a0: 60ec 95bd 202e 433d a52e 4ebd 96f5 66be
000000b0: 98b7 573b 3fa6 033e 49c0 0b3e 80fe 53bc
000000c0: 75b3 1c3d 91e7 563e 7ab1 90be a35f ba3d
000000d0: 580a 073d 09bc cd3d 7b72 d1bc 8518 1c3e
000000e0: f2c3 5e3e 4451 67be b0e2 8a3e f58b ac3b
000000f0: 3817 8bbe c5bd 8cbe bbb6 863e 937a 093c
00000100: 2bfb dcbd 4670 efbd bc69 84bd d848 06be
00000110: 8109 85be 2fa5 8cbe 67cf 68be 6c40 1c3e
00000120: a69e a1bd 0159 9a3e d9bf 05be 8a82 813e
00000130: 7d20 893d 4fae 09be 6a41 273d 2912 87be
00000140: 5083 183d 9759 f4bd f7d3 2b3e 0ec1 223e
00000150: 6c1c aa3d 8010 46bc 3516 613e 7fab 0c3e
00000160: 236f 59be 9718 2e3d bb94 dcbd 600a 5d3e
00000170: 8b1d b63d 6a94 ff3d 2a2f e5bc 7b3c 583e
00000180: 1d90 9cbe e0bb 143e 9332 7e3e 25fa 673e
00000190: 0094 e0bd 2e62 1ebe b7b0 a6bd c64c 333c
000001a0: e4ce f6bd 1a70 8cbd f1c5 433e 095c 8c3e
000001b0: 22e4 40bd b1e3 bcbd 3a9e 8d3d 04f9 553e
000001c0: 1097 dabd d4c5 6b3d 3884 90be d42c e5bc
000001d0: e6aa 83bd 8f6f fc3c 74c9 163e 07c0 92be
000001e0: c5a8 d73d 09e3 113d 1de4 3e3e 83fc 963d
000001f0: 000e 6e3e c8d1 82bb 23cd 29be 224a 6ebe
00000200: f53e be3d 6137 b53d 0a2d 763e 8df7 a03e
00000210: 4d27 9abe 3bd2 cabd b312 c53d dfb3 9dbd
00000220: c2aa 1abd 561b da3d 17c2 c83c 436f 66be
00000230: 962c 713e 7d7c 1c3d afb3 c43d f89f 6dbd
00000240: fa84 523d e6a3 46bb 6b5a 813e b014 0cbe
00000250: ff0d 11be 9d49 b03d 0aea 45be 7102 6fbd
00000260: bbc2 253d bfdc 943e 24ee 8ebe b443 4fbe
00000270: 7f45 9f3d 3140 25be 21d3 203d 991e 14be
00000280: 6c6f 35be 0f4c 2c3e cc84 3dbe 12a1 983c
00000290: b813 213c 0b09 e03d 3f54 d33d 549f dbbd
000002a0: d320 743e 46b8 46be a67e b53d 0759 50bd
000002b0: bf74 5ebe 2d6f 40be 4a55 27be e6ad 88be
000002c0: 2a60 e83d 2f43 943d 6314 c33d db0e 483e
000002d0: 5037 9fbd 2421 c6bd 5662 443e 123c b2bd
000002e0: 7948 07be 3f7d 3fbe 0417 a63e 50fa f53c
000002f0: ecbb 643e 7cbb fb3d 62a2 e73d 5dcd 853e
00000300: 6321 2f3c 1970 95be 08f0 94be 28c2 25be
00000310: 4471 d43d ce5e 37be 844b 84be cd6e 6abe
00000320: 0d2f be3d 6fa1 8fbe 3200 16be aa09 34be
00000330: 7296 af3d 93af a03d cd0d 31be af64 5c3e
00000340: 6be6 eb3d a874 cf3b a024 6dbe a3b5 20be
00000350: c5c7 97bc 3cd7 7f3d 6604 483e 821b 31be
00000360: 2e67 adbd c216 f33c 229c 6a3e f5f0 a03e
00000370: eb03 87bd a63e 303e 5483 79be 744e 82be
00000380: 3e52 8e3c 7682 253d dd02 233e fba9 51be
00000390: b284 85be f148 78bd 6fcd c63a 12ac 603e
000003a0: 61cc 82be e9a6 0dbe e8f6 1f3c 0a26 313e
000003b0: 66a5 e9bd 67dc e23d 83fa dabc b501 133e
000003c0: 4c18 8d3e d76b 2d3e 4812 2c3e 1e11 64be
000003d0: 7659 03be ae10 eebd 2fee 48be f248 26be
000003e0: c2f6 13bc 80cf a23c 0779 8a3e 5a96 233d
000003f0: c218 45be 738f 873d 1b5a 6d3e aaaf 9dbe
0.28495967 0.2109394 -0.22531044 -0.08239105 -0.06533523 0.020783726 0.07791675 0.2691758
-0.29309246 -0.15644994 -0.27587906 0.2713729 -0.03512981 -0.19651456 0.15535155 -0.052870583
-0.30669692 0.072005354 0.08235378 0.017949294 -0.059087493 0.28186694 0.1760464 0.089943886
0.022462118 -0.24255024 0.16164076 -0.2740533 0.17538305 0.09206746 -0.08905292 0.13240981
-0.17858605 -0.19035065 0.055080537 0.052467972 -0.050263047 0.14706814 -0.20899537 0.1536842
-0.073204756 0.04765141 -0.050337452 -0.22554621 0.0032915827 0.12856387 0.1364757 -0.0129390955
0.03825708 0.20986773 -0.28260404 0.091002725 0.03296885 0.100456305 -0.025567284 0.15243728
0.21754435 -0.22589594 0.27126074 0.0052657076 -0.27166152 -0.27488533 0.26311287 0.00839104
-0.10790094 -0.11691336 -0.0646548 -0.13113725 -0.25983813 -0.27469775 -0.22735368 0.1525895
-0.07891588 0.3014603 -0.13061465 0.25294906 0.0669565 -0.134454 0.040833868 -0.26381043
0.037234604 -0.119311504 0.16780077 0.15893957 0.08306202 -0.012088895 0.21981128 0.13737296
-0.21233802 0.04250392 -0.107705556 0.21585989 0.088923536 0.124794796 -0.027976591 0.21116821
-0.305787 0.14524794 0.2482398 0.22654016 -0.10965729 -0.1546714 -0.081391744 0.010943597
-0.1205118 -0.06857319 0.19118477 0.27413967 -0.047092564 -0.09223116 0.06914945 0.20895773
-0.10673344 0.05756171 -0.28225875 -0.027975477 -0.06429081 0.030814914 0.14725286 -0.2866213
0.10530237 0.03561691 0.18641706 0.073723815 0.23247528 -0.003992293 -0.1658216 -0.23270467
0.09289352 0.08848453 0.24040619 0.31438866 -0.3010811 -0.099033795 0.09622707 -0.07700323
-0.037760504 0.10649745 0.024506612 -0.2250338 0.23552164 0.03820466 0.096045844 -0.058013886
0.051396348 -0.0030310093 0.25264296 -0.13679767 -0.14165495 0.086077906 -0.1932756 -0.058351938
0.040468913 0.29074666 -0.27916062 -0.2024067 0.07776927 -0.16137768 0.03926385 -0.14464797
-0.17718285 0.16825889 -0.18507689 0.018631492 0.0098313615 0.10939225 0.10318803 -0.10723749
0.23840646 -0.19406232 0.08862047 -0.050866153 -0.21724223 -0.1879241 -0.16341129 -0.26695174
0.11346467 0.07239377 0.09525373 0.19536917 -0.07774222 -0.0967429 0.19178137 -0.08702864
-0.1321124 -0.18700121 0.32439435 0.030026585 0.22337312 0.12291619 0.11310269 0.26133242
0.010689112 -0.29187086 -0.2908938 -0.16187346 0.10373166 -0.17907259 -0.25838864 -0.2289383
0.09286318 -0.28052852 -0.14648512 -0.17581812 0.08573617 0.07845988 -0.17290421 0.21522783
0.11518558 0.006331045 -0.23158503 -0.15694289 -0.018527875 0.062461123 0.19532928 -0.1729565
-0.084669456 0.029673938 0.22911122 0.31433836 -0.06592544 0.17211398 -0.24366504 -0.2545048
0.0173732 0.04040762 0.15919061 -0.20474999 -0.260778 -0.060616437 0.0015167425 0.2194064
-0.25546554 -0.13833202 0.009763457 0.17299667 -0.114085004 0.11077195 -0.026730781 0.1435612
0.275576 0.16935669 0.16803849 -0.22272155 -0.12827095 -0.11624275 -0.1962211 -0.16238764
-0.009031 0.019874334 0.27045462 0.03993831 -0.19247726 0.06619158 0.23178904 -0.30798084

linear1.bias f4 [256]
00000000: 43b2 b03d 8123 963d ffff 3e3e 4b71 dfbd
00000010: 4348 92be 62c0 093e 5061 5b3e 0e42 0f3e
00000020: 97b8 113d 8fc6 8c3e 9d07 8a3e 99e8 31be
00000030: 46a7 6d3e a015 fcbb 1540 7b3e 7dd6 4e3e
00000040: 861f c23c c784 16be 165a 993e 4018 f43d
00000050: 14de 4b3e 54d7 febd 9bbe 67be a682 383e
00000060: ef8a 6dbe 725e eb3d 6b24 debd f3ea 6f3e
00000070: 9e63 f13d 62d4 9dbe 60ae 203d 272d c6bd
00000080: ec49 8ebc b64d 323e e9eb 0f3c d522 25be
00000090: f56c b73d 6ac0 3c3e 6e40 833e cb3b 53bd
000000a0: 2ed5 c13d 55f0 1b3e c943 983b 8cb0 4c3e
000000b0: 3032 da3d 4f11 58be 59b7 6b3e 2440 033e
000000c0: 5e93 973e 53c2 88be d442 91bd 2de5 21be
000000d0: 9778 9d3e 0fba 0a3e f2d4 84be 3525 1a3e
000000e0: d046 66be 491e b93d 923b 583e 9c37 893e
000000f0: 932f d93b 2320 a5be fb59 9abd 377b 253d
00000100: ec47 523e 0c43 b1bd 3643 b13d 9c56 3cbe
00000110: d9ea 9a3e d391 653e dd39 c03c 23e6 36be
00000120: 6d5f d43d 4fd5 da3d 751c 003c c210 86be
00000130: 8210 9d3d 255d 8a3e 8924 96be 9c14 a8b9
00000140: afd5 91be c7b8 d9bc 0040 86be 54cd 11be
00000150: 9ef0 eb3d 000c a73e 8b03 98be d300 e5bc
00000160: e483 61be 54b9 6ebe 719c 543e 4445 933e
00000170: 37ca 92be fa29 c3bc 55dc 52be 12d3 3d3d
00000180: 02c7 843e 547e e6bd 6672 7cbe ecf2 163c
00000190: ba6a 5d3e 1465 123e 6bcd 033c f837 a03d
000001a0: 3ca9 a0bd 538f aabb 0d9c 873d a10a 633e
000001b0: 0d4a 733e f7a8 9cbd 6e2f 88be aad0 823c
000001c0: 522a 41bd 7033 493e e8f6 99bd 4edb 9abd
000001d0: f969 653d c5c1 693e d536 97bd f73b bf3d
000001e0: 6772 913e f89e 56be c102 413e 4dcc 11be
000001f0: 3ffe 21be 21c0 9fbd d510 553c 759a 7d3d
00000200: 9675 713e 49ae 403e ddd8 6abd a994 4abe
00000210: e7bb 253e 8972 5cbe 4723 50bd 9f89 823e
00000220: 54f4 42be 9bc0 783e e314 75be 903d 033d
00000230: 8acc 89bd 04aa 07be 98bf 92bd 3c80 efbd
00000240: b779 583e 1891 ee3d 89fb 923e 4bca 6c3e
00000250: 38f9 98be 8821 4dbe e7ef 8f3e a019 7b3e
00000260: d4b3 8bbe dd1a 8a3e ae3f 80be de24 8bbe
00000270: 3987 20be 2b82 3ebe b2e5 203d 80f2 7a3e
00000280: e0ca f2bc 4a82 4e3e a612 c4bd aed8 8bbe
00000290: 47c4 d73d ebae 1dbe b626 3c3e 1302 50bd
000002a0: 05e5 8bbe c412 afbc 6cc1 df3d 6a29 3fbe
000002b0: 3001 7cbe 94f8 c6bd 179b 383e 2a7c 0b3e
000002c0: 45db 72be d2e0 63bc 5c5c 243e c0db f43c
000002d0: 4dbf d03c 747b 85be c20d 523d 2d06 c73d
000002e0: 72a1 313e b7ff 3cbc d658 aa3d 6896 883d
000002f0: cc31 88be 3be6 323e c885 3dbe 3810 853e
00000300: 0435 303e 6c9c 3ebe 72f7 c1bd 24dc 85bd
00000310: 08e6 febc 02de 94be 9cdd c73b c5ed 66be
00000320: e095 33be 96d9 833e 0596 14be bcac 83be
00000330: 3961 5e3e cc92 1ebd 186f 073e 76cd 163e
00000340: a7cf f33d 131a 85be 05a5 6b3e 6039 03be
00000350: cc31 45bd 9613 1e3e 6ed5 2bbe 3abc 9b3d
00000360: 9735 85be a765 72be d4b3 4abd 7de5 30be
00000370: 5df0 8cbe 244f f7bc 63fc 933d da70 edba
00000380: 12a6 0d3e 05f8 343e b262 6a3b 1cef 983d
00000390: 11bf c6bd 1490 f1bd ccb2 7cbb 3ffe 433e
000003a0: 7655 543d a026 263e 2b6d 7abe c329 11be
000003b0: 78ea 89be 9373 493e 177e 94be e2aa 5a3d
000003c0: aeb1 543d e749 593e 53b5 8e3e c561 4fbc
000003d0: d571 0d3e 2916 1ebd 84f4 0fbe 1afd 2abe
000003e0: 0164 05be 9703 40be 9d7a 90be ad31 84be
000003f0: bab6 65bd f0e9 2b3e b50c 583d 2386 54be
0.08627751 0.073309906 0.18652342 -0.10910281 -0.28570756 0.13452294 0.2142384 0.13990042
0.03557643 0.27495238 0.26958933 -0.17373885 0.23208341 -0.0076930076 0.24536164 0.20199008
0.023696672 -0.14699088 0.29951543 0.11918688 0.19908935 -0.12443414 -0.22631304 0.18018588
-0.2319753 0.114926234 -0.1084679 0.2342947 0.117865786 -0.30826098 0.039228797 -0.09676581
-0.017369233 0.17412457 0.008784273 -0.16126569 0.08956329 0.18432775 0.25635093 -0.051570695
0.09464489 0.15228398 0.0046467525 0.19989222 0.10654104 -0.21100353 0.2301916 0.12817436
0.2960462 -0.26710758 -0.070928246 -0.1581008 0.30756065 0.13547538 -0.25943714 0.15053256
-0.2248795 0.090389796 0.21116474 0.2680024 0.0066279857 -0.3225108 -0.07536694 0.04040071
0.20535249 -0.08655366 0.086553976 -0.18392414 0.302573 0.22418909 0.023465091 -0.17861228
0.103697635 0.10685217 0.007819285 -0.2618466 0.07669164 0.2702419 -0.2932475 -0.00032058812
-0.2848334 -0.026577367 -0.26220703 -0.14238483 0.115205035 0.32626343 -0.29690203 -0.027954495
-0.22022969 -0.23312885 0.20762803 0.28763783 -0.28669903 -0.023823727 -0.20591862 0.04634387
0.2593308 -0.11254564 -0.24653015 0.0092131905 0.21622744 0.1429637 0.008044581 0.07823175
-0.07844779 -0.005205074 0.06621561 0.22172023 0.23758717 -0.07649415 -0.26598686 0.01596864
-0.0471595 0.19648528 -0.07517797 -0.0756136 0.056009267 0.22827823 -0.07383505 0.09337609
0.28407595 -0.2095908 0.18848707 -0.14238091 -0.15819643 -0.078003176 0.013004501 0.06191488
0.23580012 0.18816485 -0.057335723 -0.19783272 0.1618496 -0.21528067 -0.050814893 0.25495622
-0.19038516 0.24292223 -0.23933749 0.032041132 -0.06728466 -0.1324845 -0.0716545 -0.11694381
0.2114018 0.11648768 0.2870753 0.23124044 -0.2987764 -0.20032322 0.28112718 0.24521494
-0.27285635 0.2697362 -0.25048584 -0.27176565 -0.15676583 -0.18604343 0.039281555 0.24506569
-0.029637754 0.20166889 -0.095738694 -0.2731375 0.10535484 -0.15398757 0.18374142 -0.050783228
-0.27323166 -0.021371253 0.10925564 -0.18668142 -0.24609828 -0.09715381 0.18027912 0.13621584
-0.23716457 -0.013908582 0.16050857 0.029889941 0.025481844 -0.2607075 0.05128265 0.09717975
0.17346743 -0.011535577 0.08317725 0.06669313 -0.26600492 0.17470638 -0.18508065 0.25988936
0.17207724 -0.18614358 -0.094710246 -0.06536129 -0.031115547 -0.2907563 0.006099416 -0.2255164
-0.17537642 0.25751942 -0.14510353 -0.25717723 0.21716775 -0.038714215 0.13225973 0.14726815
0.11904841 -0.25996456 0.23012169 -0.12814856 -0.048143193 0.15437159 -0.16780636 0.07604261
-0.26017448 -0.2367159 -0.049487904 -0.17275043 -0.27527133 -0.030189104 0.07225873 -0.0018115297
0.13832882 0.17672737 0.0035764393 0.074674815 -0.09704412 -0.11795059 -0.003855872 0.19139956
0.051839314 0.16225672 -0.24455707 -0.14176087 -0.26936698 0.19672994 -0.2900245 0.053385623
0.05192726 0.21219598 0.27872714 -0.012657587 0.13812955 -0.038595352 -0.14058119 -0.16698113
-0.1302643 -0.1875137 -0.28218547 -0.2581915 -0.056082465 0.16788459 0.052746493 -0.20754294

linear2.weight f4 [3, 256]
00000000: 680d 59bd 1dc6 363c bf94 c73b 13c2 283d
00000010: 569b 673c a98c f53c af73 13bd 0c21 43bd
00000020: e57d 193d 83fe ee3c 2a1d 25bd b4e3 37bd
00000030: 1c41 2dbd 2bfd 93bb ee06 a63c 269d 253d
00000040: 6589 4cbd 1986 6ebd 212d bb3c 66a2 15bd
00000050: 9e46 563a 2e18 6dbd f9f2 a1bc 850e 64bc
00000060: 1987 9fbb d5c2 bbbd fb6e 883b ed44 68bc
00000070: 25e3 bcbc 426f 5cbc 3483 e2bc a8ea 003d
00000080: 4a40 7fbd 1cb7 223d 9f09 e8bc 7023 b13c
00000090: a777 e33c d576 b0bd 8e49 c13c bf15 87bd
000000a0: b2b7 11bd b757 8abb aa70 1a3d 58a5 66bd
000000b0: f64b 5f3c 0693 9bbb 8efb 70bc 1218 dabd
000000c0: ce76 10bc 2c11 bcbb 9089 453c da8b d2bb
000000d0: ab87 bebd ffb2 30bd 67a3 cb3b 84c0 9a3c
000000e0: 1092 e33c 6f18 55bc 74da 37bc a5bf 18bd
000000f0: cd87 0e3d ac3c 4f3b f31b a8bd fc52 5cbd
00000100: 59a6 1f3d 9e38 e93a 7b86 2c3c 6622 a8bd
00000110: 42c2 013d d89c 56bd 5b4f 8abd ccf1 c9bc
00000120: 814d 0abd 7a9c 753d f69d 003d bd19 57bd
00000130: 7c6c 463c 2c20 e23c 49c3 07bd 3915 86bc
00000140: 9809 6abd fb6e a7bc 8f9b 1cbd e85c 473c
00000150: 2a91 38bd 0fce 88bc 44cd 5a3d d484 183c
00000160: 744a d23c de95 55bd d3c2 123d f05b e6bb
00000170: f081 c33c 36cc d9bd f709 9c3c 88a2 09bd
00000180: 600a 5ebd 3623 bb3c e13b 9bbc 85b7 1cbd
00000190: 46f7 81bd 9b76 8cbb f12c 8abd 537a 453c
000001a0: 0d70 78bd 5b02 fcbc 568d b6bc f816 82bd
000001b0: 4b59 5dbd d6bc a0bd 3197 e6bc ff70 92bc
000001c0: 3b40 a03b 77d0 4a3d b487 6fbc 983f 25bd
000001d0: ac37 56bc e491 8abd 5d12 803c 84a5 2e3d
000001e0: 469c 8dbd 1ac1 793b 2044 483b 1107 723b
000001f0: 44a9 56bd 3a75 2fbd 219d 99bd cfcb a73c
00000200: 03fc 1cbd 3523 81bd 02c6 1bbd b53e 0fbd
00000210: 2e4e 0d3c c294 8cbd 3d65 863c f01a 493d
00000220: e4ac 743d 4c59 08bd 5961 843c 54d4 29bd
00000230: 438e a2bd 4085 45bd ae6d 483d b668 97bd
00000240: 6137 283b ab2d 4ebd 0ee5 51bd 95e1 503c
00000250: 73a9 473c d373 e0bc 7bcf b33c e633 9abc
00000260: e4da f2bc 0966 c5bc 89c5 253d a4f7 333c
00000270: 5722 24bd 3263 62bd e4b2 8dbc 9c72 dcbc
00000280: 20e7 a93b 61a9 8e3c 8cdc ce38 90c2 b83b
00000290: c964 9dbc a732 62bd e190 4dbd 4b64 96bd
000002a0: 3cc0 41bd 8666 8c3c 196e ac3c a992 a4bc
000002b0: 3e27 333c cd00 903c e63c 94bd 56a9 c73c
000002c0: dc4e 063d dc94 483c 6e3f 203c 7036 efbc
000002d0: 4e4f bdbc 6f29 013c 5b45 803c 8ab2 4cbd
000002e0: 354a 39bd 0513 5cbc 33d2 8dbd 2c97 0bbd
000002f0: 2081 023d b9ad ed3b f471 96b9 fb6a 933c
00000300: e0f4 cebd 8c58 d0bd f4ce 56bd 62d7 01bd
00000310: 2ec3 d0bd 28bd 87bc 1e95 c33c 268c 17bc
00000320: 7e58 60bd 9886 c0bc 97ec 853c 3a2c 46bc
00000330: 059f 09bd 22dd 1c3d a513 3bbd 16ab d43c
00000340: 66ae 15bd b90d 073d 6564 6ebd 58af 7f3c
00000350: ef6b c93b 648a 023d 8e77 ff3b cfd8 84bc
00000360: f213 06be 9489 acbc 8da3 41bd b3ba 94bd
00000370: 0ef8 963c c6c1 62ba a1fa af3c 1013 aabd
00000380: b952 de3c c878 0fbc 2518 9e3b 851f 18bd
00000390: 4ce1 adbc a2b5 3b3c 9405 13bd dffc 8f3b
000003a0: 62e0 733c 1001 323c c86f b7bc 62ce 64bd
000003b0: 3c94 d9bc 5ff8 243d da51 0f3d 593a a6bd
000003c0: aaf8 d43c 1bfa b0bd 7041 283d c65c 333d
000003d0: 1ee2 17bd b58d a23c 666f e0bd faa8 7dbd
000003e0: 03de 2c3d ba81 b13c 8219 363d 6b29 68bd
000003f0: da57 50bd e1d5 00bd a4ba 37bd 89be 023d
-0.0529913 0.011155632 0.00609073 0.04120071 0.014136156 0.029974299 -0.035998996 -0.047638938
0.037473578 0.029174095 -0.040311016 -0.04489489 -0.04229842 -0.004516264 0.020266976 0.04043307
-0.049935717 -0.058233354 0.022848668 -0.03653183 0.0008173975 -0.057884388 -0.019769179 -0.013919477
-0.0048684 -0.09168021 0.0041636205 -0.014176589 -0.02305753 -0.01345426 -0.027650453 0.031473786
-0.06231717 0.039725408 -0.0283249 0.021623343 0.027767016 -0.086164154 0.023594644 -0.065959446
-0.035575576 -0.004221882 0.0377051 -0.056310028 0.01362895 -0.004747751 -0.014708413 -0.10649122
-0.008817388 -0.0057393517 0.012056723 -0.006425363 -0.0930322 -0.043139454 0.0062145474 0.018890627
0.027779609 -0.013006314 -0.011221517 -0.03729214 0.03479748 0.0031621857 -0.08208456 -0.053790078
0.038977 0.0017793362 0.0105301095 -0.08209686 0.0316794 -0.05239567 -0.06753417 -0.02465143
-0.03376532 0.05996368 0.031400643 -0.05251478 0.012110826 0.027603231 -0.033145223 -0.016367542
-0.057138056 -0.020438662 -0.03823429 0.012168147 -0.045060314 -0.016699819 0.053418413 0.009309012
0.025670268 -0.052144878 0.03583033 -0.007030003 0.02386567 -0.10634653 0.01904772 -0.033602268
-0.054209113 0.022843938 -0.01894945 -0.038260955 -0.06345992 -0.0042866 -0.06746853 0.01205309
-0.060653735 -0.030762842 -0.022284191 -0.06352037 -0.054040235 -0.078485176 -0.028148266 -0.017876146
0.0048904694 0.049515214 -0.0146197565 -0.04034385 -0.013074797 -0.06766108 0.015633756 0.042638317
-0.069145724 0.0038109482 0.0030558184 0.0036930481 -0.052407518 -0.042836405 -0.07500673 0.020482926
-0.038326275 -0.06305543 -0.03803063 -0.03497191 0.0086245965 -0.06864311 0.016405696 0.049097955
0.059735194 -0.033288285 0.0161597 -0.041462258 -0.079372905 -0.04822278 0.048932724 -0.07393019
0.0025667774 -0.05033652 -0.051243834 0.012749095 0.012186396 -0.02739898 0.02194952 -0.018823575
-0.02964539 -0.024096506 0.040471587 0.010984335 -0.04007181 -0.05527038 -0.017297216 -0.026910119
0.005185023 0.01741475 9.8639255e-05 0.005638428 -0.019213097 -0.055224087 -0.050186995 -0.07343348
-0.04730247 0.01713873 0.021048592 -0.020089464 0.010934649 0.017578507 -0.07238178 0.024372738
0.03279005 0.012242522 0.009780748 -0.029200763 -0.023109104 0.007883414 0.015658071 -0.049974956
-0.045236785 -0.013432269 -0.06924858 -0.034079716 0.031861424 0.0072533754 -0.0002869513 0.017995348
-0.101053 -0.10173139 -0.05244346 -0.031699546 -0.101934776 -0.016569689 0.023874816 -0.009249723
-0.054771893 -0.02350168 0.016348166 -0.012095505 -0.03359892 0.038296826 -0.04567303 0.025960486
-0.036543272 0.03297207 -0.058201212 0.01560577 0.0061469 0.03187026 0.0077962345 -0.016216664
-0.13093546 -0.021061696 -0.047275115 -0.072621725 0.018428829 -0.00086500903 0.021481814 -0.08304417
0.027139055 -0.008756824 0.0048246556 -0.037139434 -0.021225594 0.011456879 -0.03589399 0.0043941583
0.01488504 0.010864511 -0.022392169 -0.055860884 -0.026559941 0.040275928 0.03499017 -0.08116598
0.025997479 -0.08641454 0.04107803 0.043789648 -0.037080877 0.019842962 -0.109587476 -0.061928727
0.042203914 0.021668304 0.04445792 -0.056680124 -0.05086503 -0.03145397 -0.04485573 0.03191999

linear2.bias f4 [3]
00000000: 56a4 92bd ad28 abbd bbcc a93b
-0.07160251 -0.08357368 0.0051818765
