model/model.pth (torch, 16787 bytes, 4 tensors)

linear1.weight f4 [256, 11]
-0.07096423 0.56803435 -0.51244676 -0.10892572 0.08411246 0.20611343 0.049528025 0.18093456
0.19228742 -0.044187177 -0.071047634 0.3853464 -0.037139144 -0.035152066 -0.31689194 -0.010912501
0.3645177 0.48761252 0.2151265 -0.05290122 -0.4380939 -0.6348527 -0.36267993 0.020316841
0.034572266 0.5297376 -0.3491131 -0.43816116 0.24733022 0.40734166 -0.4911855 -0.3225877
-0.7629452 -0.14915775 -0.05820282 0.17651263 -0.29299706 0.10783271 0.15504673 -0.38593715
-0.55135804 -0.038537595 -0.26282778 -0.28660092 -0.13211799 -0.27940682 -0.15407075 -0.1463195
0.02111253 0.3431445 -0.21348052 -0.09679151 -0.13185267 -0.23038359 0.25439122 -0.2726907
-0.077289835 0.024503002 -0.351725 0.4783545 0.18717523 -0.37693116 -0.3203891 0.2781512
-0.58188736 -0.07020159 0.38782066 0.26504686 -0.008382444 0.059924465 -0.15234947 -0.49819753
-0.08466745 0.034345143 0.2639358 0.49468544 0.1984366 -0.0063844486 0.65890497 -0.34382796
0.0022518607 -0.050667867 0.06006303 -0.21351145 0.34960693 0.11847166 0.14153284 0.23959967
-0.23781508 -0.27848956 -0.13946103 -0.006357163 -0.08703844 -0.12486097 -0.21040866 -0.25231677
-0.18212384 -0.1837245 -0.21515933 -0.15948011 0.1679578 -0.29217237 -0.28960168 0.0055998545
-0.17233057 -0.24885696 0.05049165 0.02239513 -0.12023977 0.114372335 -0.38032964 -0.1161259
0.59386003 -0.2476918 0.026532343 -0.08596034 -0.12643926 0.2577864 0.20513603 0.17298861
0.32187077 -0.18021934 0.011468518 0.46916282 0.17274284 0.110343225 -0.2824879 -0.29900402
0.061850272 -0.012578968 -0.3792686 -0.35763597 -0.25888035 0.3530515 0.10813716 0.34814593
0.33987764 -0.07995036 -0.40659454 0.066689484 -0.039382905 -0.48953924 -0.4965754 0.16059132
-0.33157682 -0.21255092 0.05619797 -0.18214785 0.06704101 0.1641974 -0.09348941 -0.04903263
-0.36009347 -0.12706155 -0.019731265 0.65354115 -0.2810374 -0.17599985 0.17708467 -0.3794145
0.11662747 -0.2747363 0.11212227 0.018382046 -0.33954576 0.29584396 0.382282 -0.012836693
-0.22379294 0.22980893 0.21582232 -0.36646616 -0.011729637 -0.5885278 0.038279857 -0.24977277
0.19977129 -0.0937156 -0.59221274 -0.2752627 -0.10641156 0.3701163 0.38019404 0.2805413
0.2233709 -0.4906429 -0.6297196 0.3335411 0.37276533 0.26646495 0.037248503 -0.23356327
-0.19640508 0.008184856 0.047819667 -0.010779622 0.32263362 0.030851966 0.15764564 -0.2423602
0.01942981 0.5244009 0.033055436 -0.09245982 -0.27027622 -0.3093984 0.10360119 -0.45414734
0.50394654 -0.09960899 0.55518305 -0.30425704 0.12642826 -0.25614464 0.3287669 -0.79689234
0.33510605 -0.44747004 0.0093348725 -0.08751779 -0.09760366 0.45025796 -0.10281495 -0.018543214
0.073204145 -0.2031481 -0.25649926 -0.011525537 -0.060168304 -0.32091907 0.09009551 0.021322288
0.4226978 -0.48663622 0.29988813 -0.1295464 -0.011930414 -0.2694282 -0.23553196 0.31169608
-0.16231763 -0.48930174 0.39588067 -0.046907824 0.28317338 0.4910978 -0.2754928 0.22570796
-0.47480017 -0.35669416 0.31559375 -0.039392814 -0.4190144 0.5669531 -0.98129606 -0.021219775
00000000: b255 91bd b36a 113f b62f 03bf 7314 dfbd
00000010: 2743 ac3d 660f 533e e6dd 4a3d e946 393e
00000020: fee6 443e 9dfd 34bd 6c81 91bd 204c c53e
00000030: 371f 18bd 9dfb 0fbd a93f a2be 59ca 32bc
00000040: 10a2 ba3e 59a8 f93e 1f4a 5c3e f3ae 58bd
00000050: d84d e0be b585 22bf 2fb1 b9be 816f a63c
00000060: a69b 0d3d e29c 073f f4be b2be a956 e0be
00000070: 2244 7d3e 168f d03e aa7c fbbe 372a a5be
00000080: 6050 43bf cfbc 18be 1566 6ebd babf 343e
00000090: b603 96be 65d7 dc3d 92c4 1e3e 8e99 c5be
000000a0: cd25 0dbf 99d9 1dbd 5d91 86be 5bbd 92be
000000b0: f049 07be 690e 8fbe b9c4 1dbe c7d4 15be
000000c0: 2ff4 ac3c a3b0 af3e a39a 5abe a13a c6bd
000000d0: 6304 07be ade9 6bbe 913f 823e 1e9e 8bbe
000000e0: 224a 9ebd 85ba c83c 4d15 b4be e2ea f43e
000000f0: ddaa 3f3e 1ffd c0be 0a0a a4be d669 8e3e
00000100: 92f6 14bf dac5 8fbd 6e90 c63e 39b4 873e
00000110: 8556 09bc 5b73 753d 8001 1cbe bf13 ffbe
00000120: 2166 adbd 7ead 0c3d 9822 873e 6947 fd3e
00000130: f732 4b3e a334 d1bb ffad 283f 380a b0be
00000140: f493 133b 1c89 4fbd a704 763d bfa2 5abe
00000150: aeff b23e 45a1 f23d fced 103e 9e59 753e
00000160: cc85 73be 2f96 8ebe dfce 0ebe c04f d0bb
00000170: 3641 b2bd 1cb7 ffbd 5e75 57be aa2f 81be
00000180: ac7e 3abe 4622 3cbe ba52 5cbe c14e 23be
00000190: 21fd 2b3e 9e97 95be ac46 94be fc7e b73b
000001a0: 6d77 30be 5cd4 7ebe 55d0 4e3d fe75 b73c
000001b0: 4540 f6bd 0b3c ea3d 91ba c2be 6ad3 edbd
000001c0: 3607 183f eba2 7dbe 5b5a d93c fa0b b0bd
000001d0: 4b79 01be 94fc 833e 2e0f 523e ed23 313e
000001e0: 3fcc a43e 6b8b 38be 73e6 3b3c 1c36 f03e
000001f0: 80e3 303e a1fb e13d 41a2 90be 0e17 99be
00000200: b656 7d3d 0418 4ebc 7e2f c2be 101c b7be
00000210: f78b 84be 2bc3 b43e 0477 dd3d 2f40 b23e
00000220: 7104 ae3e 04bd a3bd 292d d0be 7f94 883d
00000230: f84f 21bd e3a4 fabe 213f febe 0d72 243e
00000240: 70c4 a9be f3a6 59be d82f 663d f784 3abe
00000250: cc4c 893d 5d23 283e 6077 bfbd 70d6 48bd
00000260: 2c5e b8be 6c1c 02be 76a3 a1bc 794e 273f
00000270: 22e4 8fbe 4e39 34be af55 353e 9e42 c2be
00000280: 62da ee3d 3caa 8cbe 5ca0 e53d f295 963c
00000290: f1d8 adbe dc78 973e 77ba c33e fe50 52bc
000002a0: fa29 65be 0853 6b3e 8700 5d3e 74a1 bbbe
000002b0: aa2d 40bc c2a9 16bf 57cb 1c3d 6fc4 7fbe
000002c0: d890 4c3e f7ed bfbd 419b 17bf 3cef 8cbe
000002d0: 4eee d9bd e27f bd3e cba8 c23e 1ca3 8f3e
000002e0: 57bb 643e 8c35 fbbe 4e35 21bf e6c5 aa3e
000002f0: 19db be3e 186e 883e e391 183d 362b 6fbe
00000300: 6a1e 49be c619 063c 8ede 433d 039d 30bc
00000310: 3c30 a53e 43bd fc3c dc6d 213e 462d 78be
00000320: 442b 9f3c 233f 063f 2365 073d 935b bdbd
00000330: a561 8abe 7869 9ebe dc2c d43d 0086 e8be
00000340: a402 013f ccff cbbd 7a20 0e3f 94c7 9bbe
00000350: 6976 013e 6425 83be 2354 a83e 2301 4cbf
00000360: 0593 ab3e cb1a e5be 4bf1 183c 873c b3bd
00000370: 6de4 c7bd 3688 e63e a590 d2bd f0e7 97bc
00000380: 0eec 953d 0e06 50be df53 83be 9bd5 3cbc
00000390: 0a73 76bd 814f a4be ff83 b83d 14ac ae3c
000003a0: d96b d83e 6228 f9be f08a 993e d0a7 04be
000003b0: c877 43bc 7ef2 89be 4a2f 71be a196 9f3e
000003c0: 9836 26be c285 fabe dfb0 ca3e 6b22 40bd
000003d0: 1afc 903e 2c71 fb3e 640d 8dbe fd1f 673e
000003e0: 0219 f3be 9ea0 b6be 8195 a13e 5c5a 21bd
000003f0: 0e89 d6be d723 113f 3836 7bbf 18d5 adbc

linear1.bias f4 [256]
-0.30226293 0.049223814 -0.037974447 0.1768873 -0.2483139 0.061638203 -0.13787872 -0.15413475
0.055857748 -0.34365413 0.14338613 0.09933117 0.08329662 -0.30215734 0.21858697 -0.0043049203
-0.09950458 -0.090594195 -0.24898328 0.19402795 0.21590066 -0.19273503 -0.15251592 -0.12995191
-0.20851646 -0.030484347 0.11963424 -0.044319477 -0.17432657 -0.22649297 -0.35905722 -0.11564855
0.17489375 -0.101344004 0.22588438 -0.31148824 -0.091870844 0.088691585 -0.12337666 0.33480757
0.120479845 0.088531226 -0.059868373 0.3238079 0.36701888 0.19534957 -0.05891644 -0.15236722
-0.09185134 -0.012097011 0.46570063 0.29516113 0.33226183 0.16603506 -0.15907355 0.12974231
-0.0012419298 -0.20452651 -0.41259718 -0.13767767 -0.15979196 -0.18730168 -0.21722263 -0.30984414
-0.16650337 -0.038183816 -0.25638875 0.13739647 -0.23844601 -0.117708005 -0.06034842 -0.18998304
0.2998433 -0.09449058 0.18177256 -0.03390729 -0.20100977 0.72173244 0.21439461 -0.056360945
-0.10801074 -0.24428149 0.37039238 0.1751299 -0.068982415 -0.05691892 -0.18542056 -0.26092362
-0.18866466 0.10055768 -0.19975685 0.07546808 -0.370821 -0.07143594 -0.2585972 -0.106619656
0.7067161 -0.031142166 -0.34935376 -0.40073285 -0.025325088 0.54291606 -0.19551577 -0.15213507
0.2052817 -0.17825244 0.399512 0.069484904 -0.10680139 -0.2235177 -0.34003955 -0.05098094
-0.27463457 -0.30115354 0.081906885 -0.11887514 0.24680343 -0.2785613 -0.31003186 -0.14679495
-0.13134933 -0.2762335 -0.23001833 0.068361975 0.028480375 -0.08932955 -0.24204567 -0.30640832
-0.36834583 0.52396095 -0.23893563 -0.20158459 -0.30351725 0.14171848 -0.017734779 -0.19756816
0.00905389 -0.05283269 -0.2736639 -0.12136455 -0.23902251 0.097242884 0.023619032 0.29367164
0.13063335 -0.21679631 -0.30699748 -0.22964904 0.009916495 0.08046807 -0.5154842 -0.2924336
-0.052584324 -0.05637536 -0.020746104 -0.26827258 0.18964721 -0.19139333 -0.2823776 -0.025543751
0.0056493278 -0.25524196 -0.07987749 -0.12169291 -0.22048074 -0.24015258 0.20632583 -0.20914078
-0.22564532 -0.033810772 -0.12791146 -0.40960538 -0.3426718 -0.39059472 -0.13766484 -0.42976594
0.046108037 0.1913045 -0.46426514 0.022275504 -0.017518042 -0.110313 -0.09462452 -0.08238165
-0.17308766 0.01134361 -0.36057 -0.28726593 -0.3258757 0.30413842 -0.042119835 -0.11496571
-0.0017644372 0.38762113 0.4240031 -0.25855276 -0.1084097 -0.07755964 0.4602927 -0.0749799
0.08693567 -0.04363163 -0.01768418 0.47963992 -0.2485055 -0.2575034 -0.37312633 -0.09209546
-0.02229446 -0.22226377 -0.12822405 0.35613155 -0.11381539 0.14926937 0.36418292 0.014278079
-0.025619192 0.05108669 0.52179396 -0.27502382 -0.2429046 0.77072734 -0.15051065 -0.07431192
-0.2595418 0.01248865 -0.16274898 0.27636757 -0.3068137 0.5423683 -0.0714568 -0.1608676
0.48433587 -0.2209242 -0.21526667 0.2763999 0.23388384 -0.1425807 -0.21092667 -0.06828929
-0.47136763 -0.38052648 -0.10162214 -0.17724709 -0.026588904 -0.21215317 0.19783309 -0.0055160504
0.044468347 -0.15906534 -0.21488182 -0.23030396 0.3205233 0.09263461 0.20200188 -0.26326704
00000000: 35c2 9abe e99e 493d 188b 1bbd f221 353e
00000010: 0046 7ebe 5778 7c3d 1430 0dbe 80d5 1dbe
00000020: 18cb 643d 6ff3 afbe d0d3 123e 246e cb3d
00000030: 6b97 aa3d 5eb4 9abe 43d5 5f3e 4a10 8dbb
00000040: 0fc9 cbbd 7389 b9bd 79f5 7ebe 43af 463e
00000050: 1015 5d3e 555c 45be 222d 1cbe 1d12 05be
00000060: 5785 55be 4fba f9bc cc02 f53d 5788 35bd
00000070: aa82 32be c6ed 67be 59d6 b7be 26d9 ecbd
00000080: 5917 333e 728d cfbd 3c4e 673e 637b 9fbe
00000090: c826 bcbd efa3 b53d e7ac fcbd e66b ab3e
000000a0: 23be f63d dc4f b53d 8a38 75bd 26ca a53e
000000b0: e6e9 bb3e b809 483e 5d52 71bd 2706 1cbe
000000c0: 8e1c bcbd 8b32 46bc 5070 ee3e 5c1f 973e
000000d0: 391e aa3e 1805 2a3e 2de4 22be 2bdb 043e
000000e0: 40c8 a2ba 666f 51be f03f d3be 60fb 0cbe
000000f0: 81a0 23be 03cc 3fbe 9c6f 5ebe e4a3 9ebe
00000100: dc7f 2abe a266 1cbd 6345 83be a9b1 0c3e
00000110: 312b 74be e510 f1bd e82f 77bd ea8a 42be
00000120: 1085 993e 4784 c1bd 9622 3a3e 5fe2 0abd
00000130: 81d5 4dbe 75c3 383f 438a 5b3e bcda 66bd
00000140: bc34 ddbd ed24 7abe 12a4 bd3e 4155 333e
00000150: a746 8dbd d023 69bd e3de 3dbe c897 85be
00000160: 4f31 41be 2ff1 cd3d 0f8d 4cbe 028f 9a3d
00000170: 40dc bdbe 024d 92bd da66 84be 685b dabd
00000180: 59eb 343f db1d ffbc 7fde b2be db2c cdbe
00000190: 8f76 cfbc 8cfc 0a3f 4935 48be 4cc9 1bbe
000001a0: 5e35 523e cf87 36be d68c cc3e 1a4e 8e3d
000001b0: b0ba dabd d3e1 64be aa19 aebe 64d1 50bd
000001c0: e79c 8cbe cc30 9abe ccbe a73d cf74 f3bd
000001d0: 0aba 7c3e 969f 8ebe 7fbc 9ebe 6a51 16be
000001e0: 7080 06be 7a6e 8dbe ed89 6bbe 5d01 8c3d
000001f0: ad4f e93c 69f2 b6bd d2da 77be 8de1 9cbe
00000200: d397 bcbe 4e22 063f 8bab 74be 316c 4ebe
00000210: 9d66 9bbe a61e 113e 8748 91bc 4f4f 4abe
00000220: c456 143c 1767 58bd ad1d 8cbe fa8d f8bd
00000230: 51c2 74be 4727 c73d b37c c13c 215c 963e
00000240: c0c4 053e daff 5dbe c62e 9dbe 1e29 6bbe
00000250: cb78 223c 72cc a43d c6f6 03bf dbb9 95be
00000260: a962 57bd d9e9 66bd bcf3 a9bc 065b 89be
00000270: e132 423e 9dfc 43be cc93 90be 2141 d1bc
00000280: ff1d b93b 13af 82be cf96 a3bd 223a f9bd
00000290: b4c5 61be 8fea 75be 1447 533e 0029 56be
000002a0: 910f 67be 2a7d 0abd 39fb 02be ccb7 d1be
000002b0: ae72 afbe 08fc c7be 03f8 0cbe 480a dcbe
000002c0: c8db 3c3d 54e5 433e 29b4 edbe 1e7b b63c
000002d0: ff81 8fbc c8eb e1bd 80ca c1bd b6b7 a8bd
000002e0: e43d 31be 8cda 393c a29c b8be 8514 93be
000002f0: 2ed9 a6be 08b8 9b3e d985 2cbd 2473 ebbd
00000300: b044 e7ba 4776 c63e ef16 d93e 0761 84be
00000310: e805 debd 97d7 9ebd 7cab eb3e 108f 99bd
00000320: 540b b23d 14b7 32bd 6ade 90bc 5d93 f53e
00000330: 3a78 7ebe 7cd7 83be 6a0a bfbe 8b9c bcbd
00000340: dfa2 b6bc 1d99 63be 2a4d 03be e056 b63e
00000350: 0b18 e9bd 12da 183e 2f76 ba3e 9bee 693c
00000360: 57df d1bc 4740 513d 4a94 053f eccf 8cbe
00000370: fcbb 78be 634e 453f 771f 1abe d930 98bd
00000380: aae2 84be 329d 4c3c aba7 26be 0d80 8d3e
00000390: af16 9dbe a6d8 0a3f f157 92bd 7aba 24be
000003a0: dffa f73e f439 62be de6e 5cbe 4a84 8d3e
000003b0: 3f7f 6f3e ad00 12be 29fd 57be 41db 8bbd
000003c0: 1957 f1be 5ed4 c2be 451f d0bd 4380 35be
000003d0: f9d0 d9bc ae3e 59be c294 4a3e fcbf b4bb
000003e0: 7124 363d 06e2 22be fb09 5cbe cdd4 6bbe
000003f0: a11b a43e 37b7 bd3d 95d9 4e3e f0ca 86be

linear2.weight f4 [3, 256]
-0.022504224 -0.45386663 0.496422 0.10728756 -0.2631796 0.27260187 -0.19544809 -0.06503703
-0.032565728 0.0010580645 0.032674942 0.16897845 0.40596035 -0.055930793 0.074936904 -0.00020790785
-0.100842014 -0.0012297869 -0.42631972 0.2165762 0.039641973 -0.33761147 -0.19129461 -0.46151602
0.31937596 0.08726364 -0.0264439 0.00029681146 -0.036651704 -0.5223181 -0.36132094 0.07181454
0.17862394 -0.5152289 0.21194698 -0.6610143 0.01192907 -0.11794447 -0.0841464 0.2862277
0.21820638 0.26763266 0.0013808985 0.29222932 0.3524328 -0.1854483 -0.16870864 0.057220615
-0.4657079 0.2191622 0.38194028 0.42040783 0.12815389 0.19682717 -0.08615519 0.17091374
-0.39046097 -0.14238149 -0.10264842 -0.11718264 -0.01793717 -0.036718953 -0.8680773 -0.042962573
-0.1344277 -0.032074034 -0.02631552 0.23261301 -0.48068583 -0.13506816 -0.42669266 -0.11485537
0.3570658 -0.17220305 0.3077875 -0.2802368 -0.10446636 0.52826935 0.3636725 0.38493714
-0.1387525 -0.10102236 0.20136112 0.13824934 -0.012470022 -0.057532478 -0.15080032 -0.19955033
-0.33110026 0.12629394 -0.22518507 0.19888921 -0.019960098 -0.57561564 -0.54138666 0.19348261
0.24688222 -0.14832814 -0.11172914 -0.19402495 0.4788164 0.2339834 -0.016342528 -0.04081033
0.1265528 -0.005080824 0.30226964 0.657198 -0.22032604 -0.12130136 -0.09884955 -0.28501096
-0.018695371 -0.13648364 0.09598385 -0.041772567 0.21533503 -0.064468265 0.0021854674 -0.14116916
-0.03534083 -0.15227757 -0.13849097 0.22344488 0.23108833 -0.17474928 -0.23694517 -0.08177318
-0.013869573 0.21279705 0.057278395 -0.05259547 -0.24980062 0.42294562 -0.0015975861 -0.22118506
0.10136505 0.0012674591 -0.050365932 -0.092920646 0.056749977 -0.6711317 0.016901989 0.2480316
0.10784836 -0.2062185 -0.020656876 0.20143436 0.40179473 0.29933837 -0.30852544 -0.21880221
0.08872273 -0.39351898 -0.039807975 -0.31499344 0.0034195199 -0.0023792526 -0.0065670325 -0.1312284
-0.5450833 -0.009262994 0.00966134 0.0056263353 -0.22301096 -0.07644292 0.5475737 -0.076144755
-0.2530698 -0.12831585 -0.11685608 -0.32972747 -0.026800834 -0.12577103 -0.042930033 -0.35808048
0.2705308 0.10310427 -0.22423182 -0.18791579 0.30602962 0.2831458 -0.015912525 -0.5481558
0.00011567657 -0.005437154 -0.089616075 -0.16493633 -0.0099460725 0.4614254 -0.6281456 0.10745389
0.08520253 0.46778777 0.13690531 -0.13522902 0.0067440774 -0.22442603 0.18902677 0.1959343
-0.020576669 -0.05178748 -0.038902886 0.26343894 -0.24443215 -0.11211633 0.022568535 -0.5259549
0.034944016 -0.20211121 0.04925649 0.1779668 -0.10486659 0.07561152 0.25667146 -0.0027799904
0.25485945 0.3472973 0.38496423 -0.045889203 -0.30636936 0.26351726 0.014790474 -0.10334597
-0.4298359 -0.2740743 -0.10812957 0.1532187 -0.05617564 0.31855115 0.39667296 0.019077946
0.14917514 0.014243824 -0.23540157 0.5483748 0.20590073 -0.28627175 -0.6167827 -0.054089703
-0.28013027 -0.01565537 -0.237161 -0.22060445 -0.55812323 -0.40221936 0.2704255 -0.6585586
0.011320219 -0.17277281 -0.1527051 -0.50710595 0.4388656 0.02383488 0.41308352 -0.36856347
00000000: c75a b8bc 3561 e8be 062b fe3e 95b9 db3d
00000010: 7abf 86be 7992 8b3e 8b23 48be 2232 85bd
00000020: a463 05bd c1ae 8a3a 29d6 053d b008 2d3e
00000030: 09da cf3e b017 65bd 8578 993d d701 5ab9
00000040: 4286 cebd cd30 a1ba 9446 dabe 27c6 5d3e
00000050: 9f5f 223d 69db acbe bce2 43be d44b ecbe
00000060: 3f85 a33e 47b7 b23d e1a0 d8bc 5c9d 9b39
00000070: 1920 16bd a4b6 05bf 0fff b8be 8013 933d
00000080: 32e9 363e 0be6 03bf a108 593e 3c38 29bf
00000090: 2572 433c df8c f1bd f354 acbd 708c 923e
000000a0: 7e71 5f3e 2607 893e 44ff b43a 159f 953e
000000b0: 1272 b43e 29e6 3dbe f5c1 2cbe 2a60 6a3d
000000c0: 4471 eebe 0e6c 603e ad8d c33e b23f d73e
000000d0: c63a 033e 108d 493e 2272 b0bd 0304 2f3e
000000e0: 80ea c7be 74cc 11be 5639 d2bd 74fd efbd
000000f0: f9f0 92bc 9d66 16bd 503a 5ebf 86f9 2fbd
00000100: 6aa7 09be 1060 03bd a593 d7bc 1b32 6e3e
00000110: 741c f6be 4f4f 0abe 7677 dabe 4b39 ebbd
00000120: 54d1 b63e ff55 30be 5396 9d3e 337b 8fbe
00000130: 75f2 d5bd a93c 073f 4833 ba3e 7b16 c53e
00000140: 2315 0ebe d0e4 cebd 9c31 4e3e 3c91 0d3e
00000150: 104f 4cbc 2da7 6bbd 666b 1abe ec56 4cbe
00000160: f985 a9be 3353 013e ea96 66be 9da9 4b3e
00000170: 5c83 a3bc 8c5b 13bf 5198 0abf 4e20 463e
00000180: b1ce 7c3e 55e3 17be 3fd2 e4bd 7aae 46be
00000190: 6c27 f53e 5899 6f3e c4e0 85bc bc28 27bd
000001a0: 0f97 013e 0a7d a6bb 16c3 9a3e 213e 283f
000001b0: 269d 61be d96c f8bd a271 cabd f5ec 91be
000001c0: 0927 99bc 5ec2 0bbe 2e93 c43d b619 2bbd
000001d0: c980 5c3e f007 84bd 0f3a 0f3b a68e 10be
000001e0: 8cc1 10bd a7ee 1bbe 94d0 0dbe bcce 643e
000001f0: 6ba2 6c3e 7af1 32be c1a1 72be b278 a7bd
00000200: 353d 63bc 78e7 593e c09c 6a3d 596e 57bd
00000210: bccb 7fbe 548c d83e 1866 d1ba 567e 62be
00000220: 7b98 cf3d df20 a63a 824c 4ebd 2e4d bebd
00000230: aa72 683d 49cf 2bbf 0a76 8a3c fffb 7d3e
00000240: 9adf dc3d f12a 53be 9c38 a9bc cf44 4e3e
00000250: 0ab8 cd3e e142 993e 0cf7 9dbe b00d 60be
00000260: 43b4 b53d 527b c9be b00d 23bd d246 a1be
00000270: 061a 603b 3ced 1bbb 4330 d7bb bd60 06be
00000280: 948a 0bbf d0c3 17bc 994a 1e3c 1f5d b83b
00000290: fc5c 64be 1b8e 9cbd ca2d 0c3f c8f1 9bbd
000002a0: 5d92 81be 3b65 03be 3e52 efbd 0ad2 a8be
000002b0: 6c8d dbbc 1fca 00be 67d7 2fbd 5356 b7be
000002c0: 0383 8a3e 5528 d33d 079d 65be ff6c 40be
000002d0: eaaf 9c3e 7cf8 903e fc5a 82bc f053 0cbf
000002e0: 6397 f238 272a b2bb a288 b7bd 12e5 28be
000002f0: daf4 22bc f33f ec3e 26ce 20bf c910 dc3d
00000300: aa7e ae3d e181 ef3e e830 0c3e 7a79 0abe
00000310: 6cfd dc3b f0cf 65be 3c90 413e 00a3 483e
00000320: 6790 a8bc 1c1f 54bd a258 1fbd 78e1 863e
00000330: 6c4c 7abe 3f9d e5bd a6e1 b83c fba4 06bf
00000340: 7521 0f3d 3ef6 4ebe 2cc1 493d ee3c 363e
00000350: 4bc4 d6bd 36da 9a3d 716a 833e 8030 36bb
00000360: f07c 823e f4d0 b13e 081a c53e 51f6 3bbd
00000370: 72dc 9cbe bceb 863e bf53 723c 0da7 d3bd
00000380: 7313 dcbe 7753 8cbe 0973 ddbd 5de5 1c3e
00000390: 6e18 66bd 2319 a33e b818 cb3e 5a49 9c3c
000003a0: 5ec1 183e ee5e 693c 1c0d 71be 4a62 0c3f
000003b0: a4d7 523e 3692 92be 79e5 1dbf 2a8d 5dbd
000003c0: 3c6d 8fbe b13f 80bc 55da 72be 22e6 61be
000003d0: 2ae1 0ebf b2ef cdbe 3675 8a3e 4c97 28bf
000003e0: 7178 393c 5beb 30be ba5e 1cbe b2d1 01bf
000003f0: feb2 e03e 5e41 c33c af7f d33e 5ab4 bcbe

linear2.bias f4 [3]
0.30967656 0.07466911 0.003455854
00000000: ed8d 9e3e 1eec 983d 9c7b 623b
